jsl_app/hand_gesture_model.tflite (tflite, 58704 bytes, 6 tensors)

arith.constant f4 [6, 64]
0.5310262 -0.16530816 -0.5148865 0.30021253 0.3325524 -0.0022608852 0.40638483 -0.6206119
-0.2454052 -0.33790216 -0.323235 -0.41101226 0.15104365 -0.5913102 0.202981 -0.20984195
0.46722934 -0.000828695 -0.061163113 -0.24864113 -0.27673408 -0.71998787 -0.19489796 0.28412703
0.5935691 0.5069032 0.10287941 0.35717368 -0.1912862 -0.5823186 0.123029746 0.45095286
-0.22146194 0.03394995 -0.03021597 -0.41697714 0.44048458 0.011144863 0.35886148 0.63124454
-0.19165595 -0.29308623 0.12646164 -0.2716259 -0.56213534 0.14582378 -0.35728163 -0.3465484
-0.34774357 0.088256784 0.48980787 0.18045184 0.119825564 -0.54586494 0.24001819 -0.7491055
0.04398397 0.38707405 0.28262427 -0.3418963 -0.5961536 -0.622917 -0.10976277 -0.6561707
-0.21906409 -0.6253374 0.29735282 0.22424616 0.22908919 0.29816657 -0.3369337 -0.20110486
-0.63046765 -0.60825044 -0.6020288 -0.64113337 0.4867055 0.39778057 -0.72601116 -0.5122895
-0.6013472 -0.17448203 -0.43041518 -0.22059104 0.45354733 0.39332566 0.049714964 0.35547313
-0.53679436 -0.6203066 -0.2512254 0.24978773 0.10971114 0.31995538 -0.07637538 -0.72423154
0.059605464 0.06633723 -0.054521825 0.28077734 0.14875144 0.13188136 -0.24969749 0.19346744
0.2420039 0.15180439 0.25195205 -0.03327728 0.35595483 0.33339733 -0.46573555 0.31777138
0.24952833 0.12000779 0.099628374 -0.41512495 0.20239742 -0.4973382 -0.3771679 -0.6872397
-0.6538023 -0.3921573 0.46726078 -0.28778133 -0.21970035 -0.58181834 -0.31489033 -0.44838518
-0.27128625 -0.053973824 -0.5588262 -0.61034244 0.11722357 -0.87454057 0.39092022 -0.6555882
0.2157593 0.36974677 0.01559011 0.25700516 -0.0896666 0.14454597 -0.4608963 0.43448603
0.041536395 0.5896471 -0.29748383 0.38526016 0.27034676 -0.07362001 -0.009256065 -0.53229815
0.15565449 -0.062410627 -0.5311738 -0.4124023 0.17658867 -0.14185844 -0.55701 0.38204572
0.38934112 -0.56094074 -0.34478423 0.14080715 -0.3238268 0.4352155 -0.72133654 -0.046818096
-0.1271948 0.36332297 -0.43149894 0.13873245 0.1855189 -0.44522652 -0.16903427 -0.1691836
0.37710425 0.08424163 -0.28807315 0.22640991 -0.6827407 0.058211323 -0.20788452 0.112582445
-0.9404113 -0.47098318 -0.44462854 0.42325708 0.36483496 -0.16796125 0.47594064 -0.22489415
-0.122261 -0.4996879 -0.09154117 -0.055567086 -0.45432794 -0.040463027 0.088480614 -0.34571627
0.29219952 -0.3248244 0.46844786 0.19494091 -0.10269452 0.11684751 -0.10250297 -0.71201235
-0.19889648 -0.4332235 0.47868806 -0.48431635 0.29819593 -0.84495723 0.09485939 0.20504394
0.36166215 0.05359717 0.17480768 0.19827256 0.26755404 -0.5981036 0.34059665 -0.022867957
0.28284842 0.22691359 0.032412957 -0.48228177 -0.5975007 0.047264192 0.52955794 -0.71063244
0.11630888 -0.5515839 -0.021530079 -0.6128178 0.12532523 -0.02680068 0.5382958 -0.36053455
0.34243712 0.22292067 -0.51334983 0.4592356 -0.60057807 0.40995747 0.41057432 0.08619185
-0.08267179 -0.45757794 0.10494329 -0.5689444 0.23752922 -0.043463744 0.23505902 -0.26116365
00000000: 55f1 073f 8b46 29be 9acf 03bf 75b5 993e
00000010: 4f44 aa3e 5c2b 14bb ac11 d03e 6ce0 1ebf
00000020: 804b 7bbe 8301 adbe 0f7f a5be 3370 d2be
00000030: 30ab 1a3e 1b60 17bf 40da 4f3e cfe0 56be
00000040: af38 ef3e c83c 59ba 2c86 7abd c89b 7ebe
00000050: 17b0 8dbe 2051 38bf 5593 47be 1979 913e
00000060: 25f4 173f 68c4 013f 71b2 d23d 78df b63e
00000070: 88e0 43be d512 15bf 05f7 fb3d 4be3 e63e
00000080: ebc6 62be 1a0f 0b3d 7b87 f7bc 077e d5be
00000090: 3287 e13e f298 363c b1bc b73e 3e99 213f
000000a0: 7541 44be 660f 96be 297f 013e 8d12 8bbe
000000b0: 1ae8 0fbf d452 153e 9eed b6be cb6e b1be
000000c0: 720b b2be f9bf b43d 19c8 fa3e 5ec8 383e
000000d0: 1b67 f53d cebd 0bbf 54c7 753e 61c5 3fbf
000000e0: 8928 343d 922e c63e 21b4 903e 080d afbe
000000f0: 869d 18bf 7d77 1fbf 4ecb e0bd cefa 27bf
00000100: 5652 60be 1d16 20bf a13e 983e c9a0 653e
00000110: 5b96 6a3e 4aa9 983e 9382 acbe 6fee 4dbe
00000120: 5466 21bf 4db6 1bbf 8f1e 1abf 5121 24bf
00000130: 7731 f93e e5a9 cb3e dedb 39bf 6825 03bf
00000140: e4f1 19bf 6bab 32be 615f dcbe 9ee2 61be
00000150: 5b37 e83e fb61 c93e eba1 4b3d 9300 b63e
00000160: 5b6b 09bf 6acc 1ebf 9ea0 80be 5bc8 7f3e
00000170: 3cb0 e03d 31d1 a33e b26a 9cbd 3d67 39bf
00000180: dc24 743d d0db 873d 4752 5fbd 0cc2 8f3e
00000190: 4c52 183e e80b 073e b3b0 7fbe 541c 463e
000001a0: dfcf 773e 9c72 1b3e dcff 803e c24d 08bd
000001b0: b63f b63e 0eb3 aa3e e474 eebe eeb2 a23e
000001c0: 5b84 7f3e a5c6 f53d f609 cc3d 428b d4be
000001d0: 4541 4f3e 1da3 febe 271c c1be f1ee 2fbf
000001e0: 965f 27bf d7c8 c8be ce3c ef3e 1358 93be
000001f0: 21f9 60be 0cf2 14bf 4e39 a1be be92 e5be
00000200: 08e6 8abe a813 5dbd 3c0f 0fbf 673f 1cbf
00000210: e912 f03d e4e1 5fbf b226 c83e a1d4 27bf
00000220: 02f0 5c3e 734f bd3e a96d 7f3c 2e96 833e
00000230: 1fa3 b7bd dc03 143e 9afa ebbe f474 de3e
00000240: 1122 2a3d 1df3 163f cd4f 98be d240 c53e
00000250: e46a 8a3e 16c6 96bd c0a6 17bc b144 08bf
00000260: e463 1f3e 49a2 7fbd 02fb 07bf 6526 d3be
00000270: a9d3 343e 5743 11be 3598 0ebf 7f9b c33e
00000280: b857 c73e d099 0fbf 8f87 b0be c02f 103e
00000290: a0cc a5be 91d4 de3e 83a9 38bf 55c4 3fbd
000002a0: 5b3f 02be 7805 ba3e 6eed dcbe e10f 0e3e
000002b0: abf8 3d3e bbf4 e3be 5217 2dbe 773e 2dbe
000002c0: cf13 c13e e086 ac3d 537e 93be 00d8 673e
000002d0: 18c8 2ebf ff6e 6e3d aedf 54be a091 e63d
000002e0: ccbe 70bf b524 f1be 5aa6 e3be 27b5 d83e
000002f0: a6cb ba3e 09fe 2bbe 7eae f33e a74a 66be
00000300: fa63 fabd 18d7 ffbe f079 bbbd 509a 63bd
00000310: ac9d e8be 8fbc 25bd 5335 b53d b901 b1be
00000320: 2d9b 953e 624f a6be 66d8 ef3e 979e 473e
00000330: 8151 d2bd bf4d ef3d 14ed d1bd 7146 36bf
00000340: 85ab 4bbe 78cf ddbe 9a16 f53e 50f8 f7be
00000350: 23ad 983e 1e4f 58bf a445 c23d 0af7 513e
00000360: c82b b93e b588 5b3d c900 333e f607 4b3e
00000370: d8fc 883e 511d 19bf af62 ae3e 9555 bbbc
00000380: 82d1 903e 095c 683e 73c3 043d a3ed f6be
00000390: cef5 18bf 1998 413d 1c91 073f 02ec 35bf
000003a0: 5a33 ee3d 9a34 0dbf d95f b0bc a1e1 1cbf
000003b0: 4255 003e 1a8d dbbc c1cd 093f fc97 b8be
000003c0: eb53 af3e 5145 643e e56a 03bf ee20 eb3e
000003d0: 7cbf 19bf f2e5 d13e cc36 d23e 5a85 b03d
000003e0: d44f a9bd a847 eabe 82ec d63d 57a6 11bf
000003f0: dc3a 733e 0a07 32bd 50b3 703e 3eb7 85be

arith.constant1 f4 [64, 128]
0.27779147 0.017755792 -0.10741031 0.2144807 0.12974684 -0.0506756 0.14706492 0.12312718
0.2205904 0.06419662 -0.15172836 -0.055684753 -0.12350451 0.025775647 -0.07333946 0.045370243
-0.24002764 0.06873047 -0.019156381 -0.025528584 0.16067235 0.051515758 -0.18577157 0.41597027
0.06115334 0.13173439 0.12381538 -0.036175653 0.14458181 -0.099368356 0.17141037 -0.08364927
0.2864262 -0.043215152 -0.07107981 -0.060496576 -0.01606572 -0.1644086 -0.449841 -0.08091868
0.30144617 -0.27139977 -0.15890704 -0.10483714 0.046647117 0.06177605 -0.11194204 0.020632474
0.11515375 0.19461845 0.048583128 0.06039332 -0.13831204 -0.10157905 -0.020581855 -0.066795506
0.0280475 -0.015719682 -0.1817259 -0.022624714 -0.2601883 -0.13681409 -0.0966255 -0.046622504
0.12127279 0.19093888 0.26974028 0.15088022 0.16460286 0.0365621 -0.08150883 -0.18492422
-0.0077556353 0.055277526 -0.4832978 0.014168229 -0.04021302 -0.030046627 0.019641263 -0.19290602
-0.28367025 0.1950385 0.0055854027 0.33753264 0.27639183 0.20191923 -0.23228608 0.18657966
-0.07565648 0.122655645 -0.07750477 -0.010434091 0.22101973 -0.20207855 0.35823855 0.04943143
-0.2157263 -0.14801838 -0.063466534 -0.09514694 -0.111393616 -0.2854079 0.0880162 0.027666988
0.14706801 0.30272272 -0.46152604 -0.07965068 0.050881 -0.096022554 0.16925837 -0.341319
-0.108383484 -0.044493884 0.16007029 0.022413345 -0.025259167 -0.06104006 0.028039666 0.08575765
-0.08603878 0.029595137 -0.11897333 0.09427128 -0.0754042 0.0068967543 0.3812221 0.3369739
-0.011128199 0.11515193 0.031336308 -0.08118302 0.08522041 -0.020226106 0.19101913 0.008454904
0.07828623 0.09983204 -0.13864537 0.033402175 -0.16664518 0.18392707 0.13689202 -0.14864144
-0.32511598 -0.099145405 -0.11893423 0.054917566 -0.014753714 -0.16615644 -0.058502253 0.03999198
-0.2556313 0.0685094 -0.07480649 0.14305319 -0.04214108 0.190939 0.15749565 -0.035837933
-0.15888476 -0.1444041 -0.0935732 -0.15539744 0.032566123 -0.07529667 -0.23581538 0.15087554
-0.016445858 -0.39490062 0.01215493 0.05898675 -0.14367506 -0.03546817 -0.37798464 0.13952234
0.1524568 0.028982257 -0.05460528 0.058664963 -0.05481434 -0.14692497 0.19664733 -0.10533412
-0.01741345 -0.16962546 0.17125265 0.010862948 0.30275294 -0.08871244 0.10059752 0.11187306
0.121438935 0.021119498 0.105222754 0.07334761 0.035774752 -0.0043238103 0.04825907 -0.05609092
0.022857986 0.095738634 -0.29120523 0.18328254 0.08177705 -0.015206379 -0.031153759 0.1815754
-0.13455124 0.00080032967 -0.12401822 0.035855815 0.08248665 0.224043 0.1284319 -0.1885651
0.088096894 -0.09876982 -0.028041482 0.15515815 -0.08591677 -0.2791102 0.21333635 0.01276581
-0.047898624 -0.047210798 0.012599036 -0.2087943 0.030960869 0.08864629 0.019873336 0.23600397
0.023390183 0.19048946 0.022293953 0.24041574 -0.0055599827 0.044243623 0.31063113 -0.12794225
-0.16978534 0.11250006 0.16071709 0.14619018 -0.030422376 -0.14695354 -0.15483622 -0.1770738
-0.11868228 0.106765434 0.19803314 0.15625842 -0.13284332 0.029202642 0.15383352 -0.0795746
00000000: af3a 8e3e 9874 913c f0f9 dbbd d4a0 5b3e
00000010: 5bdc 043e 3891 4fbd 3098 163e 1a2a fc3d
00000020: 73e2 613e 8479 833d ae5e 1bbe b215 64bd
00000030: efef fcbd 7327 d33c 0033 96bd 26d6 393d
00000040: cec9 75be 90c2 8c3d d8ed 9cbc 5221 d1bc
00000050: 4b87 243e 3002 533d e73a 3ebe 0efa d43e
00000060: ed7b 7a3d 61e5 063e eb92 fd3d ec2c 14bd
00000070: 410d 143e a381 cbbd 3386 2f3e 4f50 abbd
00000080: 74a6 923e 5f02 31bd 4b92 91bd 42cb 77bd
00000090: 429c 83bc ba5a 28be 8f51 e6be b1b8 a5bd
000000a0: 2757 9a3e e9f4 8abe 87b8 22be dbb4 d6bd
000000b0: 0c11 3f3d e208 7d3d de41 e5bd 6f05 a93c
000000c0: bbd5 eb3d 0f4a 473e 1aff 463d fc5e 773d
000000d0: aca1 0dbe ad08 d0bd 479b a8bc 15cc 88bd
000000e0: dfc3 e53c 90c6 80bc 5b16 3abe 7757 b9bc
000000f0: 6737 85be fe18 0cbe 97e3 c5bd 3df7 3ebd
00000100: de5d f83d 7b85 433e 661b 8a3e 5880 1a3e
00000110: a78d 283e 24c2 153d 1aee a6bd c65c 3dbe
00000120: fc22 febb b06a 623d cf72 f7be dc21 683c
00000130: 68b6 24bd 5824 f6bc b7e6 a03c 2889 45be
00000140: 3a3d 91be 2cb8 473e c105 b73b 14d1 ac3e
00000150: 3b83 8d3e eac3 4e3e 67dc 6dbe bd0e 3f3e
00000160: c9f1 9abd e232 fb3d d2ba 9ebd c0f3 2abc
00000170: ff52 623e aeed 4ebe 0b6b b73e 9c78 4a3d
00000180: 5be7 5cbe 2192 17be befa 81bd 66dc c2bd
00000190: 5622 e4bd fc20 92be d641 b43d e1a5 e23c
000001a0: ff98 163e 79fe 9a3e 244d ecbe e51f a3bd
000001b0: 9868 503d 79a7 c4bd 1152 2d3e 5dc1 aebe
000001c0: 29f8 ddbd 383f 36bd 77e9 233e 319c b73c
000001d0: 50ec cebc 2405 7abd 71b3 e53c b5a1 af3d
000001e0: 1a35 b0bd 8071 f23c 4aa8 f3bd 4d11 c13d
000001f0: 846d 9abd 2bfe e13b 8b2f c33e d887 ac3e
00000200: 0d53 36bc c6d4 eb3d 805a 003d 4843 a6bd
00000210: 0a88 ae3d 38b1 a5bc 859a 433e 7086 0a3c
00000220: 8854 a03d be74 cc3d 0df9 0dbe b8d0 083d
00000230: 09a5 2abe 6157 3c3e 6c2d 0c3e 7635 18be
00000240: 9a75 a6be bf0c cbbd ca93 f3bd 3ef1 603d
00000250: 90b9 71bc ea24 2abe 0fa0 6fbd a1ce 233d
00000260: 1be2 82be a84e 8c3d 2534 99bd 897c 123e
00000270: 209c 2cbd 8385 433e 8a46 213e ccca 12bd
00000280: b0b2 22be abde 13be 4ea3 bfbd 8220 1fbe
00000290: 0e64 053d 2435 9abd 9679 71be 1e7f 1a3e
000002a0: 77b9 86bc 6a30 cabe 7925 473c 179c 713d
000002b0: 8e1f 13be 1247 11bd 3487 c1be f2de 0e3e
000002c0: a31d 1c3e 336c ed3c c9a9 5fbd ac4a 703d
000002d0: 0085 60bd 8073 16be eb5d 493e 6ab9 d7bd
000002e0: a7a6 8ebc 4cb2 2dbe db5c 2f3e 82fa 313c
000002f0: 6f02 9b3e deae b5bd 1306 ce3d b41d e53d
00000300: fab4 f83d cc02 ad3c 077f d73d 4637 963d
00000310: 8c88 123d c0ae 8dbb 4dab 453d 98bf 65bd
00000320: ac40 bb3c 9e12 c43d da18 95be 6bae 3b3e
00000330: ba7a a73d 2d24 79bc 2b36 ffbc e7ee 393e
00000340: cdc7 09be 37cd 513a 44fd fdbd 8cdd 123d
00000350: c3ee a83d 876b 653e a783 033e 3617 41be
00000360: 256c b43d d547 cabd 40b7 e5bc c7e1 1e3e
00000370: 22f5 afbd 88e7 8ebe d874 5a3e b027 513c
00000380: 5931 44bd 1c60 41bd 306c 4e3c 2cce 55be
00000390: a6a1 fd3c 308c b53d 68cd a23c 06ab 713e
000003a0: c59c bf3c ab0f 433e cfa1 b63c 8b2f 763e
000003b0: 8430 b6bb cd38 353d 0b0b 9f3e 4b03 03be
000003c0: 35dc 2dbe 6e66 e63d 0593 243e e1b2 153e
000003d0: 5938 f9bc fd7a 16be 638d 1ebe d652 35be
000003e0: b20f f3bd d6a7 da3d 33c9 4a3e 3502 203e
000003f0: 1408 08be 613a ef3c 8986 1d3e 02f8 a2bd

arith.constant2 f4 [6]
0.08702134 0.07814713 -0.09171663 -0.06930987 0.055582125 -0.08824262
00000000: 3f38 b23d 9a0b a03d eed5 bbbd 55f2 8dbd
00000010: 15aa 633d 8cb8 b4bd

sequential_1/dense_1_2/BiasAdd/ReadVariableOp f4 [64]
0.13320026 0.06728094 0.06127021 0.17872466 0.10436687 0.10142205 0.08445358 0.09187714
0.03578572 0.02293141 -0.017134828 0.042090688 0.104415454 -0.018766792 0.11162125 -0.0056085726
0.048201762 -0.034903184 -0.039388772 -0.03906082 0.01082805 0.011403889 -0.030389428 0.13062312
0.085488066 0.11943927 0.11761784 0.09906138 -0.025935706 0.062574014 0.08653591 0.110154934
-0.018605303 0.10143969 0.122179955 -0.028074281 0.13954633 -0.02996099 0.12049434 0.16605172
-0.024020853 0.035961423 0.17638 0.087081045 -0.008962523 0.13190249 -0.0683691 0.02588991
-0.0056939907 -0.01633401 0.13772358 0.011792375 0.1741411 -0.017352227 0.10878795 -0.062285535
0.09448563 0.13923419 0.09305464 -0.043360792 0.0059302887 0.04346607 0.020031884 0.06698244
00000000: a665 083e 97ca 893d 79f6 7a3d 9903 373e
00000010: 4cbe d53d 5db6 cf3d 00f6 ac3d 152a bc3d
00000020: 0c94 123d a7da bb3c 575e 8cbc 4967 2c3d
00000030: c5d7 d53d d1bc 99bc af99 e43d 1ec8 b7bb
00000040: 366f 453d a4f6 0ebd 1f56 21bd 3dfe 1fbd
00000050: 2268 313c 61d7 3a3c 40f3 f8bc 11c2 053e
00000060: 5e14 af3d 939c f43d 9fe1 f03d b1e0 ca3d
00000070: 1e77 d4bc ce26 803d bd39 b13d e998 e13d
00000080: 266a 98bc 9dbf cf3d 7c39 fa3d 09fc e5bc
00000090: 3ce5 0e3e c070 f5bc bdc5 f63d 7609 2a3e
000000a0: 61c7 c4bc 494c 133d f59c 343e 8c57 b23d
000000b0: 8cd7 12bc 7211 073e 1905 8cbd 1417 d43c
000000c0: a894 babb e7ce 85bc 6907 0d3e ce34 413c
000000d0: 0b52 323e 4226 8ebc 37cc de3d 1e1f 7fbd
000000e0: af81 c13d 6893 0e3e 6e93 be3d 169b 31bd
000000f0: de52 c23b 7a09 323d e819 a43c 172e 893d

sequential_1/dense_1/BiasAdd/ReadVariableOp f4 [128]
0.07571883 0.0 0.0 0.12406395 -0.0059008165 0.0 0.0014222111 0.0
0.0378153 -0.06636204 -0.012123029 0.0 -0.004388912 -0.013514116 -0.040628355 -0.0052226107
0.0029537347 0.0 0.0 0.09188201 0.0 0.0 0.06434207 0.14686564
0.033588793 0.0 -0.041003343 0.0 0.0 -0.095877096 0.10239767 0.0
0.09838051 0.05399467 -0.006148591 0.0 0.11423673 -0.005030156 -0.06596247 -0.008852287
0.13517897 -0.056806855 -0.07110519 -0.05120202 0.0 -0.02005146 0.011261574 -0.068122864
-0.010691717 0.079951234 -0.043427195 0.0 0.0 0.0 -0.056638356 0.0
-0.010157287 0.0 -0.04429484 -0.0635066 -0.07056864 -0.013859555 0.022108933 -0.017243417
0.0 0.048048705 0.049746662 0.013077876 0.0 0.0 -0.022006392 -0.005430254
0.06367 0.0 -0.06902255 -0.017241092 0.0 -0.023009008 0.015393665 -0.053848576
-0.0011718936 0.066379 0.12757468 0.024295611 0.04889092 0.01849417 -0.035566036 0.07813313
-0.012816946 -0.020550448 0.0 0.0 0.096266516 0.031329185 0.1065345 0.0
-0.07581466 0.0 0.0 0.10287496 0.027644224 -0.08129147 0.0 -0.039965805
0.13097066 0.07054456 -0.079309694 -0.032588407 -0.01042066 -0.10053287 0.053308878 -0.09284846
0.0 0.0 0.0 -0.0054830206 0.02719589 0.0 0.13083217 -0.039421897
0.0 0.0 -0.06632363 -0.0018310267 -0.113027506 -0.0733612 0.05742021 0.10751426
00000000: 7912 9b3d 0000 0000 0000 0000 3d15 fe3d
00000010: a35b c1bb 0000 0000 7c69 ba3a 0000 0000
00000020: 37e4 1a3d d2e8 87bd ab9f 46bc 0000 0000
00000030: ddd0 8fbb 506a 5dbc eb69 26bd 6f22 abbb
00000040: 7293 413b 0000 0000 0000 0000 a32c bc3d
00000050: 0000 0000 0000 0000 c6c5 833d f263 163e
00000060: 6794 093d 0000 0000 1ff3 27bd 0000 0000
00000070: 0000 0000 365b c4bd dfb5 d13d 0000 0000
00000080: b97b c93d 8429 5d3d 1f7a c9bb 0000 0000
00000090: f2f4 e93d 02d4 a4bb 5517 87bd 2f09 11bc
000000a0: 5b6c 0a3e 4eae 68bd 999f 91bd 36b9 51bd
000000b0: 0000 0000 f642 a4bc 7782 383c 0084 8bbd
000000c0: 502c 2fbc 79bd a33d b7e0 31bd 0000 0000
000000d0: 0000 0000 0000 0000 9ffd 67bd 0000 0000
000000e0: c06a 26bc 0000 0000 826e 35bd c00f 82bd
000000f0: 4b86 90bd 3013 63bc cb1d b53c 1142 8dbc
00000100: 0000 0000 b8ce 443d 28c3 4b3d 9644 563c
00000110: 0000 0000 0000 0000 c046 b4bc 46f0 b1bb
00000120: 6b65 823d 0000 0000 b25b 8dbd 313d 8dbc
00000130: 0000 0000 637d bcbc b635 7c3c 5390 5cbd
00000140: 399a 99ba b7f1 873d f0a2 023e 9707 c73c
00000150: d841 483d 1681 973c b1ad 11bd 4304 a03d
00000160: 2bfe 51bc 6a59 a8bc 0000 0000 0000 0000
00000170: 6127 c53d 0853 003d c32e da3d 0000 0000
00000180: b744 9bbd 0000 0000 0000 0000 1bb0 d23d
00000190: 2476 e23c 247c a6bd 0000 0000 2fb3 23bd
000001a0: 2c1d 063e ab79 903d 1f6d a2bd 6c7b 05bd
000001b0: 6abb 2abc 2de4 cdbd 695a 5a3d 5527 bebd
000001c0: 0000 0000 0000 0000 0000 0000 e9aa b3bb
000001d0: eac9 de3c 0000 0000 def8 053e db78 21bd
000001e0: 0000 0000 0000 0000 afd4 87bd 10ff efba
000001f0: f77a e7bd 663e 96bd 7431 6b3d 7030 dc3d

sequential_1/dense_1/MatMul f4 [128, 42]
0.06167759 0.101545155 0.11755696 -0.2940701 -0.11986652 -0.25431433 -0.0040394953 -0.28811312
-0.35414067 -0.013432403 -0.117430925 -0.118655466 -0.086589925 -0.08036536 0.14139415 -0.17341235
0.23001598 -0.18487985 -0.10268095 0.013853975 0.05237399 -0.18600239 0.2576885 -0.15253396
0.04363642 -0.060423132 0.15817258 0.0045661405 0.079133645 0.18266898 0.41150823 0.018305186
0.3358609 0.31765863 0.1694572 -0.081742436 0.252286 0.13651071 0.06913424 0.18548086
0.027204316 0.4565516 -0.03042902 0.038275614 0.1018464 -0.078222506 -0.0626819 0.06670013
-0.011167973 0.0012015253 0.079867244 0.17584834 0.15754128 -0.1348727 -0.062735334 -0.1708349
0.031393602 0.17024499 -0.11949146 0.09480366 -0.08215194 -0.10893712 -0.12573959 0.1606172
0.11554155 -0.16270573 0.049877614 0.18033612 -0.095652945 0.0092098415 0.09524527 0.035672843
0.052613005 0.14258829 0.16170827 0.15000182 0.12847528 -0.085975036 0.1306797 -0.106301524
-0.14790793 0.13054615 0.13105226 0.1347011 -0.09528114 0.02329269 -0.09641148 0.13850173
0.1520628 0.1337406 -0.06515391 0.15856636 0.04884711 0.014557809 0.08944082 0.036375746
0.04225032 0.036250874 -0.013478741 0.09948474 -0.020407557 0.17493114 -0.0074775964 0.027429283
0.16437963 0.1041702 -0.025921658 -0.13384229 0.079288095 0.15554902 -0.108438954 0.017384753
0.024906516 0.081276864 0.08970478 0.13564014 -0.15572831 0.04509522 0.034696534 0.15244293
0.006283775 0.112755954 -0.13458838 0.12980151 -0.1810246 0.020404205 -0.03823006 -0.08477795
-0.075329036 0.2203233 0.0011265199 0.22216886 -0.2422552 -0.058534358 -0.12521867 0.25499853
-0.32954085 -0.111049645 -0.09182662 -0.059636828 0.14727427 0.06372378 0.12713453 0.20615104
-0.22199722 -0.0071289726 -0.18316822 0.049043365 0.16151586 0.21725878 0.29695478 0.15401036
0.05492907 -0.2342064 0.15987551 -0.03237805 0.3608222 0.019428948 0.33891118 -0.18724586
0.044096492 0.030490274 0.17119466 -0.15329994 0.5220147 -0.31012434 0.51577884 -0.06417934
0.0025560409 -0.14764255 0.05660367 -0.17609188 0.09118687 -0.27409795 0.12041107 -0.37733904
0.12669773 -0.34935454 -0.14350039 -0.13055964 -0.025090601 0.10317191 -0.088175364 -0.25977445
-0.036964018 -0.34484935 0.07022328 -0.102468975 -0.10622539 0.029645892 0.13632137 -0.019523835
-0.101649895 -0.30542946 -0.061054956 0.041237187 -0.012875106 0.15171735 -0.14135842 0.26473904
-0.03033832 0.25275305 0.20394509 0.17620914 -0.15898235 0.18120581 -0.061832752 0.06363171
-0.13476096 0.25015035 0.043880224 0.09439513 0.106030405 0.15989128 0.12860388 0.09590861
-0.017706841 0.105979204 -0.026164606 -0.09637198 0.094839096 -0.05756165 0.123916 0.006801918
0.045807406 0.1320768 0.17310226 -0.11095644 0.045453817 0.113226414 0.14719337 -0.049859926
-0.11079994 -0.05968596 -0.03637795 0.12472251 -0.07462946 -0.06806 0.12621057 -0.14760609
0.030804098 -0.0060345232 -0.15219605 0.121747404 -0.111938655 0.11223289 0.14457527 0.02018854
0.06380656 -0.003169775 0.119363844 0.1443035 0.07271701 0.038969025 -0.08391883 0.06503901
00000000: a4a1 7c3d e8f6 cf3d b4c1 f03d 5b90 96be
00000010: 947c f5bd 7d35 82be be5d 84bb 9083 93be
00000020: ed51 b5be 9513 5cbc a07f f0bd a301 f3bd
00000030: 0f56 b1bd 9896 a4bd a1c9 103e 0293 31be
00000040: 4f89 6b3e 2551 3dbe 644a d2bd c8fb 623c
00000050: 1c86 563d 6977 3ebe bfef 833e dd31 1cbe
00000060: 1abc 323d 3f7e 77bd fef7 213e 909f 953b
00000070: d210 a23d 940d 3b3e 35b1 d23e c2f4 953c
00000080: f6f5 ab3e 27a4 a23e 3086 2d3e 9468 a7bd
00000090: a12b 813e 77c9 0b3e 4196 8d3d b2ee 3d3e
000000a0: 96db de3c 22c1 e93e 4846 f9bc e4c6 1c3d
000000b0: d894 d03d 1f33 a0bd 5e5f 80bd 149a 883d
000000c0: e0f9 36bc 807c 9d3a 7091 a33d 9611 343e
000000d0: 8052 213e 121c 0abe 627b 80bd 58ef 2ebe
000000e0: 9496 003d b454 2e3e f0b7 f4bd 6c28 c23d
000000f0: 473f a8bd 6d1a dfbd e1c1 00be d678 243e
00000100: 0ca1 ec3d 559c 26be 784c 4c3d 08aa 383e
00000110: b1e5 c3bd e0e4 163c f40f c33d b01d 123d
00000120: bc80 573d aa02 123e da96 253e 149a 193e
00000130: 068f 033e ae13 b0bd e6d0 053e 9db4 d9bd
00000140: 2d75 17be e4ad 053e 9032 063e 16ef 093e
00000150: c222 c3bd 50d0 be3c 6273 c5bd 66d3 0d3e
00000160: 5ab6 1b3e 4cf3 083e 6a6f 85bd 385f 223e
00000170: e813 483d e083 6e3c c02c b73d bcfe 143d
00000180: ac0e 2d3d cc7b 143d f0d5 5cbc a8be cb3d
00000190: c02d a7bc 2621 333e a006 f5bb 60b3 e03c
000001a0: 2253 283e 3057 d53d a859 d4bc f40d 09be
000001b0: cc61 a23d 3e48 1f3e 3e15 debd 786a 8e3c
000001c0: c008 cc3c 7c74 a63d 24b7 b73d 40e5 0a3e
000001d0: 3e77 1fbe c4b5 383d f41d 0e3d 001a 1c3e
000001e0: 20e8 cd3b 98ec e63d 89d1 09be b0ea 043e
000001f0: 835e 39be b826 a73c 2097 1cbd 10a0 adbd
00000200: 1c46 9abd 6e9c 613e bca7 933a 3c80 633e
00000210: bf11 78be b9c1 6fbd 5339 00be 2b8f 823e
00000220: 94b9 a8be ff6d e3bd 980f bcbd bf45 74bd
00000230: 11cf 163e 9d81 823d 8e2f 023e 4219 533e
00000240: 3d53 63be 289a e9bb 7390 3bbe b2e1 483d
00000250: 6a64 253e 1679 5e3e 750a 983e e4b4 1d3e
00000260: 4efd 603d cdd3 6fbe 68b6 233e d99e 04bd
00000270: b0bd b83e 7529 9f3c c485 ad3e 61bd 3fbe
00000280: 869e 343d bdc6 f93c a74d 2f3e a9fa 1cbe
00000290: c1a2 053f 9ec8 9ebe 150a 043f 7570 83bd
000002a0: 4083 273b 9c2f 17be 40d9 673d 6e51 34be
000002b0: 2fc0 ba3d 9156 8cbe 149a f63d 9532 c1be
000002c0: 0dbd 013e 99de b2be c4f1 12be 6db1 05be
000002d0: ce8a cdbc cb4b d33d 4995 b4bd 2801 85be
000002e0: 9567 17bd 1890 b0be 39d1 8f3d 41db d1bd
000002f0: b38c d9bd f1db f23c d497 0b3e 73f0 9fbc
00000300: d22d d0bd 4061 9cbe c314 7abd 53e8 283d
00000310: 1cf2 52bc cb5b 1b3e 43c0 10be e08b 873e
00000320: 1288 f8bc d968 813e fbd6 503e 2b70 343e
00000330: 45cc 22be 048e 393e 5744 7dbd 5851 823d
00000340: c7fe 09be b513 803e c0bb 333d 3c52 c13d
00000350: 7826 d93d 8aba 233e bcb0 033e bc6b c43d
00000360: f00d 91bc a00b d93d 2857 d6bc ac5e c5bd
00000370: 003b c23d c4c5 6bbd acc7 fd3d a0e2 de3b
00000380: 8ca0 3b3d 243f 073e b841 313e 213d e3bd
00000390: c82d 3a3d 40e3 e73d dcb9 163e ec39 4cbd
000003a0: 14eb e2bd 4479 74bd 0c01 15bd 846e ff3d
000003b0: 55d7 98bd 0b63 8bbd 583d 013e 0d26 17be
000003c0: e058 fc3c 40bd c5bb 48d9 1bbe b456 f93d
000003d0: 1840 e5bd 5cda e53d 8a0b 143e 7062 a53c
000003e0: 04ad 823d 00bc 4fbb 0875 f43d 4cc4 133e
000003f0: a8ec 943d fc9d 1f3d a3dd abbd 2c33 853d
