jsl_app/hand_gesture_model_quantized.tflite (tflite, 22312 bytes, 3 tensors)

tfl.pseudo_qconst1 i1 [6, 64]
00000000: 5ae4 a933 3800 4597 d6c7 c9ba 1a9c 22dc
00000010: 4f00 f6d6 d186 df30 6556 113d e09d 154c
00000020: da06 fbb9 4b02 3d6b e0ce 15d2 a119 c3c5
00000030: c50f 531f 14a3 2981 0742 30c6 9b96 ed91
00000040: da93 3427 2834 c5dd 9296 9790 5546 81a6
00000050: 97e1 b5d9 4f45 093e a293 d42c 1338 f381
00000060: 0a0c f631 1a17 d422 2a1b 2cfa 3e3a af38
00000070: 2c15 11b7 23a9 be88 8ebb 52ce da9a c9b2
00000080: dbf9 b5ae 108a 35a7 1d32 0223 f414 c23b
00000090: 0650 d834 25f6 ffb8 15f8 b8c8 18ed b534
000000a0: 35b4 d113 d43b 9ffa ef31 c613 19c4 e9e9
000000b0: 330b d91f a408 e40f 81c0 c439 31e9 40e2
000000c0: eeb5 f2f8 bcfa 0dcc 2ccf 461d f112 f195
000000d0: e2bf 48b7 2d81 0e1f 3608 1a1e 28a6 33fd
000000e0: 2b22 05b8 a607 5095 11ad fda4 13fc 51ca
000000f0: 3322 b345 a63e 3e0d f4bb 10aa 24f9 23d9
90 -28 -87 51 56 0 69 -105
-42 -57 -55 -70 26 -100 34 -36
79 0 -10 -42 -47 -122 -33 48
101 86 17 61 -32 -99 21 76
-38 6 -5 -71 75 2 61 107
-32 -50 21 -46 -95 25 -61 -59
-59 15 83 31 20 -93 41 -127
7 66 48 -58 -101 -106 -19 -111
-38 -109 52 39 40 52 -59 -35
-110 -106 -105 -112 85 70 -127 -90
-105 -31 -75 -39 79 69 9 62
-94 -109 -44 44 19 56 -13 -127
10 12 -10 49 26 23 -44 34
42 27 44 -6 62 58 -81 56
44 21 17 -73 35 -87 -66 -120
-114 -69 82 -50 -38 -102 -55 -78
-37 -7 -75 -82 16 -118 53 -89
29 50 2 35 -12 20 -62 59
6 80 -40 52 37 -10 -1 -72
21 -8 -72 -56 24 -19 -75 52
53 -76 -47 19 -44 59 -97 -6
-17 49 -58 19 25 -60 -23 -23
51 11 -39 31 -92 8 -28 15
-127 -64 -60 57 49 -23 64 -30
-18 -75 -14 -8 -68 -6 13 -52
44 -49 70 29 -15 18 -15 -107
-30 -65 72 -73 45 -127 14 31
54 8 26 30 40 -90 51 -3
43 34 5 -72 -90 7 80 -107
17 -83 -3 -92 19 -4 81 -54
51 34 -77 69 -90 62 62 13
-12 -69 16 -86 36 -7 35 -39

tfl.pseudo_qconst3 i1 [64, 128]
00000000: 4905 e438 22f3 2720 3a11 d8f1 e007 ed0c
00000010: c112 fbf9 2a0e cf6d 1023 21f6 26e6 2dea
00000020: 4bf5 edf0 fcd5 8aeb 4fb9 d6e4 0c10 e305
00000030: 1e33 0d10 dce5 fbee 07fc d0fa bcdc e7f4
00000040: 2032 4728 2b0a ebcf fe0f 8104 f5f8 05cd
00000050: b533 0159 4935 c331 ec20 ecfd 3acb 5e0d
00000060: c7d9 efe7 e3b5 1707 2750 87eb 0de7 2ca6
00000070: e4f4 2a06 f9f0 0717 e908 e119 ec02 6459
00000080: fc25 0ae6 1bf9 3d03 1920 d30b ca3b 2cd0
00000090: 97e0 da12 fbcb ed0d ae16 e82e f23d 33f4
000000a0: cdd2 e2ce 0ae8 b431 fb81 0413 d2f5 862d
000000b0: 3109 ee13 eed1 3fde fac9 3703 61e3 2024
000000c0: 2707 2218 0cff 10ee 071f a23b 1afb f63a
000000d0: d500 d80c 1b48 29c3 1ce0 f732 e4a6 4504
000000e0: f1f1 04bd 0a1d 064c 083d 074d fe0e 64d7
000000f0: c924 342f f6d1 cec7 da22 4032 d509 31e6
73 5 -28 56 34 -13 39 32
58 17 -40 -15 -32 7 -19 12
-63 18 -5 -7 42 14 -49 109
16 35 33 -10 38 -26 45 -22
75 -11 -19 -16 -4 -43 -118 -21
79 -71 -42 -28 12 16 -29 5
30 51 13 16 -36 -27 -5 -18
7 -4 -48 -6 -68 -36 -25 -12
32 50 71 40 43 10 -21 -49
-2 15 -127 4 -11 -8 5 -51
-75 51 1 89 73 53 -61 49
-20 32 -20 -3 58 -53 94 13
-57 -39 -17 -25 -29 -75 23 7
39 80 -121 -21 13 -25 44 -90
-28 -12 42 6 -7 -16 7 23
-23 8 -31 25 -20 2 100 89
-4 37 10 -26 27 -7 61 3
25 32 -45 11 -54 59 44 -48
-105 -32 -38 18 -5 -53 -19 13
-82 22 -24 46 -14 61 51 -12
-51 -46 -30 -50 10 -24 -76 49
-5 -127 4 19 -46 -11 -122 45
49 9 -18 19 -18 -47 63 -34
-6 -55 55 3 97 -29 32 36
39 7 34 24 12 -1 16 -18
7 31 -94 59 26 -5 -10 58
-43 0 -40 12 27 72 41 -61
28 -32 -9 50 -28 -90 69 4
-15 -15 4 -67 10 29 6 76
8 61 7 77 -2 14 100 -41
-55 36 52 47 -10 -47 -50 -57
-38 34 64 50 -43 9 49 -26

tfl.pseudo_qconst5 i1 [128, 42]
00000000: 111c 21ae dfb9 ffb0 9dfc dfdf e8ea 27d0
00000010: 40cd e304 0fcc 48d6 0cef 2c01 1633 7205
00000020: 5d58 2fe9 4626 1334 087f eb1b 48c9 d42f
00000030: f801 387c 6fa1 d488 1678 ac43 c6b3 a771
00000040: 518d 237f bd06 4319 2564 726a 5ac3 5cb5
00000050: 985c 5c5f bd10 bc61 6b5e d26f 220a 3f1a
00000060: 1e19 f746 f27b fb13 7349 eea2 386d b40c
00000070: 1139 3f5f 9320 186b 044f a25b 810e f7eb
00000080: ee36 0036 c5f2 e23e b0e5 eaf1 2410 1f32
00000090: cafe d30c 2735 4825 0dc7 27f8 5805 52d2
000000a0: 0b07 2adb 7fb5 7df0 01ce 13c5 1fa4 2981
000000b0: 2b8a d0d4 f823 e2a9 f48c 18de dc0a 2ef9
000000c0: de99 eb0e fc33 d059 f655 453b ca3d eb15
000000d0: d354 2045 4e75 5e46 f34e edb9 46d6 5b05
000000e0: 2261 7faf 2153 6cdb afd4 e55c c9ce 5d94
000000f0: 17fc 9059 ae52 6a0f 2ffe 586a 190d e316
17 28 33 -82 -33 -71 -1 -80
-99 -4 -33 -33 -24 -22 39 -48
64 -51 -29 4 15 -52 72 -42
12 -17 44 1 22 51 114 5
93 88 47 -23 70 38 19 52
8 127 -21 27 72 -55 -44 47
-8 1 56 124 111 -95 -44 -120
22 120 -84 67 -58 -77 -89 113
81 -115 35 127 -67 6 67 25
37 100 114 106 90 -61 92 -75
-104 92 92 95 -67 16 -68 97
107 94 -46 111 34 10 63 26
30 25 -9 70 -14 123 -5 19
115 73 -18 -94 56 109 -76 12
17 57 63 95 -109 32 24 107
4 79 -94 91 -127 14 -9 -21
-18 54 0 54 -59 -14 -30 62
-80 -27 -22 -15 36 16 31 50
-54 -2 -45 12 39 53 72 37
13 -57 39 -8 88 5 82 -46
11 7 42 -37 127 -75 125 -16
1 -50 19 -59 31 -92 41 -127
43 -118 -48 -44 -8 35 -30 -87
-12 -116 24 -34 -36 10 46 -7
-34 -103 -21 14 -4 51 -48 89
-10 85 69 59 -54 61 -21 21
-45 84 32 69 78 117 94 70
-13 78 -19 -71 70 -42 91 5
34 97 127 -81 33 83 108 -37
-81 -44 -27 92 -55 -50 93 -108
23 -4 -112 89 -82 82 106 15
47 -2 88 106 25 13 -29 22
